pth/twotower.pth (torch, 14552 bytes, 4 tensors)

query_embedding.weight f4 [16, 32]
00000000: c2e2 59bf 93da dfbe b7d0 963e aca0 343f
00000010: f604 61bf 72b0 35be 5795 333f 0605 f33d
00000020: 0746 cf3f c52a 87bd 734b 903e 1674 f33e
00000030: 77f0 ed3f dbe4 24be e86d 80be 366d 61bf
00000040: 0abc cb3e fba1 123f 6504 dabf 501c 343f
00000050: b976 c03c 7d8d 1dbe c89f aabf be53 8a3f
00000060: 5b62 5f3d 55d4 b2be 3414 993e 81d5 153f
00000070: e385 e03e d9d0 9b3d 5d76 e33e 9a41 913f
00000080: f044 84bf 9c41 9cbd b506 683f 48ee 7cbc
00000090: 0d27 cbbf 3289 49bf 2a05 03be ebd5 b6bf
000000a0: fd68 183e 623e 17c0 2a84 2cbf 7392 9dbe
000000b0: 2778 a73e 05f9 f4bf 658d f7be 3cd5 8b3f
000000c0: 33ee 55bf 6b08 61bf c0f7 6d3e aa6b d5bd
000000d0: 4586 583e ab0d abbe de39 a7bf 7d0f fabf
000000e0: 02aa 83bf b889 2b3e f43f 963f 80f4 63bb
000000f0: 1b41 b4bf e322 073f a8c0 3e3e 8cec 973f
00000100: a8fc 44bf 81f4 d33d 5d85 0d3e 09d4 0e3f
00000110: d5a9 11bf f59e 87bf 2175 91be 7c1b 523f
00000120: 84bc 853f 225a fdbd c33c 023e 1e30 223f
00000130: a293 d63d 952f 8d3d f6b2 adbf 0af9 1ebf
00000140: 4d7c 04bf 5bea d53d 8f31 8cbe 0981 57bf
00000150: 5d4d fbbe e938 5abf 1031 1b3e 44db c83e
00000160: 1cca c23d 6d26 afbe 9426 03bf fb93 413e
00000170: 1d86 48be cc68 e7be e7f6 98bf 73ba 723e
00000180: 1f2c 2f3f ae83 95bf faf8 0140 77b9 cb3e
00000190: 8c7d 1bbf 6a0e 113f 2959 713f 3365 213f
000001a0: 3f44 423f 269b 353f 5a09 3ebf ede1 46be
000001b0: 6971 9b3f eee2 0840 8fc2 ffbe 6647 90bf
000001c0: 9f4f 4d3f 04fb db3f 35a3 7e3d 74e3 113f
000001d0: b0c6 123f fc5b f8be 890c dbbe 6d2e ec3e
000001e0: 321e 263e ead6 433f 3bee 8e3f 9124 893e
000001f0: 51fc a23f 0999 b1bd 27df 79bf 5e9e a43e
00000200: 2e55 fc3e 16ee 643f b846 9abe 22b1 4d3f
00000210: 0829 5c3e 71d2 a3bb 9496 4c3f 627c 4f3f
00000220: ca68 093e 76c9 593e d5b2 c73d f060 3f3f
00000230: 3818 a2be d7fe 1d3e 51d0 c43e 137e 5bbf
00000240: 0eec f13f cdae 743f c8ce 7539 b76f 953e
00000250: db74 7fbe 64c7 7a3d 2b42 c93f bbf6 0140
00000260: ac5f 643f e66d 20bf c1db 5840 96aa a63e
00000270: 2684 a73e fdbe d53e 64fe 2e3f 547d d0be
00000280: be5f e53e 2d0f 0abf 2ac3 0bbf 9612 8bbe
00000290: ecd2 9fbf 9fde e93e ab64 d03e b83d a23d
000002a0: a4f5 51bf 9c5a fbbf b7e3 633f 8e32 0a40
000002b0: afc2 55be 7048 99bf 3398 bcbd 1f3c 1bbe
000002c0: fc1e 6f3f c3c0 47bf 9e18 043f 4b3f 683d
000002d0: e8d3 83bf f28a b6be 58a7 a1bf 108d 70be
000002e0: 0076 9f3f 77b6 ccbe 8baa 1740 ba2c f7be
000002f0: d668 41bf de3b 3b3f 6b99 55be 6eea f43d
00000300: d8d0 85bf ff5b d2be 320b 6dbf 5639 b63d
00000310: b34d bbbf f965 5abf 931a bbbf aa46 c63e
00000320: 763a 603e ed62 be3e ed5b 32be 33de 44bf
00000330: 72ab 6bbe 5e7b 15bf ccb0 1bbf b268 4abf
00000340: 1e65 43bf 570b 983f b9c1 b13f 8b44 4c3e
00000350: fc56 55bf 1636 933f 79a3 a53f b7cf dd3e
00000360: 9152 973d 3745 b33e 6e94 283c 028a 97be
00000370: 2c57 cdbe 15fc d4be d034 dd3e 8a19 023f
00000380: e2c8 813d d268 053e fac7 513f 0d4d c4be
00000390: dc91 373f dde9 b03f 80d6 643f 7186 18c0
000003a0: 3704 933e 0d9a 9fbe 6168 86bf 0806 7f3c
000003b0: 3d91 723f 6774 45bd 7733 e23f 68b0 193e
000003c0: 1780 283f 12dc a7bf baee a0bf cf80 4b3e
000003d0: 6bd2 973f 0a6a 11be 36ef a7bf ad6b debe
000003e0: b9b6 7ebe 33ed 503f 422a 16bf 74af 1b3f
000003f0: bb46 f13e 097f 1bbf 1df6 ed3f d030 863f
-0.8511163 -0.43721446 0.29456112 0.70557666 -0.87898195 -0.1774309 0.7014975 0.118661925
1.6193246 -0.065999545 0.28182563 0.47549504 1.8589009 -0.16102926 -0.25083852 -0.8805727
0.397919 0.5727841 -1.7032591 0.703557 0.023494111 -0.15386005 -1.3330011 1.0806806
0.05453716 -0.3492762 0.29898226 0.58528906 0.43852147 0.07608194 0.44426242 1.1348145
-1.0333538 -0.076297015 0.90635234 -0.01543767 -1.5871292 -0.7872497 -0.12794939 -1.4284033
0.148838 -2.3631825 -0.67389166 -0.30775794 0.32708856 -1.9138495 -0.48350063 1.0924449
-0.8356659 -0.8790347 0.2323904 -0.10420926 0.2114497 -0.33408865 -1.3064535 -1.9535977
-1.0286257 0.16751754 1.1738267 -0.0034783185 -1.4082369 0.5278761 0.1862818 1.1869063
-0.7694802 0.1034937 0.13820405 0.5579229 -0.5689977 -1.0595385 -0.28409675 0.8207319
1.0448155 -0.12370707 0.12718491 0.6335467 0.104773775 0.06893841 -1.357024 -0.62098753
-0.5175217 0.104450904 -0.2738156 -0.8418127 -0.4908246 -0.8524309 0.15155435 0.39229786
0.095112056 -0.34209004 -0.5123074 0.18904106 -0.1958241 -0.4519714 -1.1950349 0.23703937
0.684267 -1.168081 2.0308213 0.39789936 -0.60738444 0.5666262 0.9427667 0.6304504
0.75885385 0.7093986 -0.7423302 -0.19422121 1.2143985 2.1388507 -0.49953124 -1.1271789
0.8019962 1.7185979 0.062167365 0.5698769 0.57334423 -0.48507679 -0.42783 0.4612917
0.16222456 0.7649981 1.1166452 0.2678571 1.2733251 -0.08671767 -0.9760613 0.32152075
0.49283737 0.8942579 -0.3013208 0.8034841 0.21500027 -0.004999452 0.79917264 0.8104917
0.1341888 0.21268257 0.097509064 0.7475729 -0.31659102 0.15429245 0.38440183 -0.8573925
1.8900163 0.95579225 0.00023442053 0.29186794 -0.2494692 0.06122531 1.5723318 2.0306842
0.89208484 -0.6266769 3.3884127 0.32552022 0.3271801 0.41747275 0.6835692 -0.40720618
0.44799608 -0.53929406 -0.5459467 -0.27162617 -1.2486243 0.4567766 0.40701804 0.07921928
-0.8201544 -1.9637027 0.8901934 2.1593356 -0.20875047 -1.1975231 -0.09208717 -0.15159653
0.93406653 -0.78028506 0.5160006 0.056700986 -1.0299044 -0.35652882 -1.2629194 -0.23491311
1.2457886 -0.3998296 2.369784 -0.4827631 -0.7555059 0.73138225 -0.20859306 0.119587764
-1.0454359 -0.41085812 -0.9259521 0.08897655 -1.4633087 -0.8531185 -1.4617485 0.38725787
0.21897301 0.3718485 -0.1741788 -0.7690155 -0.2301462 -0.5839137 -0.60816646 -0.79066
-0.7632617 1.1878461 1.3887244 0.19948022 -0.8333585 1.1500881 1.2940513 0.43322536
0.07388795 0.35013744 0.010289295 -0.2959748 -0.4010557 -0.41598573 0.43204355 0.5082022
0.063371435 0.13028267 0.81945765 -0.38340035 0.7170694 1.382137 0.893898 -2.3832057
0.28714153 -0.3117222 -1.0500604 0.015565403 0.94752866 -0.048206713 1.7671956 0.150087
0.6582045 -1.3114035 -1.2572854 0.19873355 1.186109 -0.14200607 -1.3119876 -0.43441525
-0.2487439 0.8161194 -0.5865823 0.60814595 0.47124276 -0.60740715 1.8590733 1.0483646

query_embedding.bias f4 [16]
00000000: 522a 403e 993b be3d 7226 423e 49d3 6fbd
00000010: 2655 75be 3767 90be 05a9 0ebb f460 4f3e
00000020: 13fe a63b 7c89 38be 9369 553c 67c9 a4be
00000030: 8f3a 993d b9a7 213e 8b0a cabc e9b4 83bd
0.18766144 0.09288711 0.18959978 -0.058551107 -0.23958263 -0.28203747 -0.0021768224 0.20251828
0.005096206 -0.18021196 0.013025659 -0.32184908 0.07481872 0.15786637 -0.02466323 -0.0643099

product_embedding.weight f4 [16, 160]
00000000: ae90 02c0 19b6 88bf 27a4 08bf 394f cfbd
00000010: 784c f6bf 8b97 5ebf cdaf f43e 3436 e4be
00000020: 3e68 bc3f a6b4 18bf c5bf 09bf 622f f7be
00000030: 2290 0c40 257c 25bf b4a6 8dbf 407e dcbf
00000040: 59a7 2fbe 52c1 8d3e 126b 3ec0 a49f 6d3e
00000050: 054a 87bf 0062 09bf 3ca7 2dc0 d308 963f
00000060: f260 593d f89e a3bf 77be 163d d2e6 d13d
00000070: fabc a4bd e082 843e 4484 ed3d 7073 2a3f
00000080: 2a78 53be 2d3e dfbe 879a b63e 42bb f83e
00000090: 93e2 53bf 7dfd 15bf 3d3b dc3e 65f4 3fbe
000000a0: 01ca 363f 4915 5c3d 5974 a3be cf08 cabd
000000b0: 9f7b ca3e d5f9 46bf cce2 bebe 882c 5bbf
000000c0: 651d 83be c340 c83d 606a 6fbf 893e e6bc
000000d0: a743 75bf 258d 263e 0799 dabe 5f11 523e
000000e0: 657f 97be 630b 653e b377 ffbd aa89 283f
000000f0: 278a 5e3e 8fa9 02be cb32 6a3e 082d e23d
00000100: af19 30bf 062b 03bf 115a 163f 810e 0b3f
00000110: c625 48bf 27c9 65be a58f 933f 77fd 103d
00000120: 388f e13f 7f7f cc3c dc04 a6bd 5e00 743f
00000130: 4412 3c3f 33ab 27bf a533 be3e 2944 bdbe
00000140: d455 8bbf 1841 3c3f e432 b2bf 0cf6 873f
00000150: 0e10 8dbe 3ced 8c3e 18c2 72bf 46fd 993e
00000160: c986 ffbd 0bc2 cfbe aa8d 65bf b043 f43e
00000170: c457 3f3e b6fe 1bbf 2316 cb3f d1a8 debc
00000180: f65b d93d dc58 ddbe 594f bcbd 5714 653b
00000190: 7594 d939 3807 09be 3ccd debd 4e9e a7be
000001a0: 6ee3 863d 1293 64be 782d 23be 9fb3 84be
000001b0: 76ea 743d d447 ddbe a596 8ebe 7360 e3be
000001c0: ed36 bdbe 6990 91bd 58fc 6abf 1482 87be
000001d0: 9f3e 25be 4c52 04be 3c66 f3be 3890 bebd
000001e0: edc0 0ebe 9063 15bf b491 17be 126d 1abd
000001f0: 23a9 393e dddf c9bd d4b5 f6be 05d9 b7bd
00000200: 714a ce3e 5b7c 223e 7557 293e 4e0f 21bf
00000210: a820 90bb 8f21 a3be 9855 0a3f 3d20 223e
00000220: f8cf 90be 3536 3d3e cd88 d83e 45a8 313e
00000230: 55b8 47be 4891 6f3d 8561 97be d579 c9be
00000240: 74f9 b7bc 25e1 9a3b df42 bc3c 42dc eb3d
00000250: e563 83be 510f b7bd 06a4 8ebe 1b83 0fbf
00000260: a2a1 64be 5abe a23d 12bb bebe 1021 3cbf
00000270: d8d4 b6be 2450 923c d041 243d 5a35 eabd
00000280: 059b 92bf 4997 d63d 237b 0940 68f9 e5bd
00000290: 038b 0ac0 9e43 8abf 1aea c43e adbf d0bf
000002a0: adcf 203f 1dc0 67c0 5c63 61bf f866 93bf
000002b0: 8c58 113f 732e 30c0 f3e1 c6be c9a3 1540
000002c0: a7a9 94bf 89ed 2dbf e1ce 533f 8703 1ebf
000002d0: 9d8b 3e3f 3b6c 5a3d 1d22 a4bf 85ec 2bc0
000002e0: 016d babf 71d9 9a3e fa5b 0540 f72c b0be
000002f0: ce9d 04c0 0294 8c3f 250a cc3e c0e7 fb3f
00000300: 8b07 b4be 2a48 d63d 4a8a 933f 3917 163d
00000310: 723b 92be d346 0dbf 51c9 6b3a 3d6d 5ebe
00000320: ac53 d2bd d3d8 2fbf 8107 f3bd 5c21 30be
00000330: 9912 aabe 7657 d6be 7a04 e53e b8a6 fe3e
00000340: 2985 80bd 1853 653a c868 c53e 99ff 3fbf
00000350: 5cc5 503e d5de e2be 822e 9cbe 5f0f 69bf
00000360: 93e1 f0be 352c fb3e be56 dd3e c578 cf3e
00000370: b1db 0cbf 1dda 5a3f 5396 ff3e 455b e73d
00000380: 4af6 08bf 419e dcbe 804e cb3f a1b6 323f
00000390: 0038 8ebf d09b 18bf 5427 9c3e 627a 143e
000003a0: 367d a03f e8c7 10bf 01bf efbe e917 173b
000003b0: b5e7 33bc 6365 a7bf 0e6e 3d3f 3a38 603f
000003c0: ef15 993e 7c5d 22bf d09d dabc c9bd 91bd
000003d0: 3fae 1bbf 6cf5 0dbe 1bad aa3e 15d4 50bf
000003e0: ad58 c4be 5b0a 2b3f 768a b13f df00 f43e
000003f0: 40a7 dcbf 26c6 f5be e7a6 2d3f 40bf 8ebd
-2.0400805 -1.0680572 -0.53375477 -0.101225324 -1.9242086 -0.86949986 0.47790375 -0.44572604
1.4719312 -0.5965065 -0.5380824 -0.48278338 2.1962972 -0.64642555 -1.1066499 -1.7226028
-0.17153682 0.27686554 -2.975285 0.2320543 -1.0569464 -0.5366516 -2.7133322 1.1721443
0.05307097 -1.2782888 0.036802735 0.102491036 -0.08043857 0.258811 0.11597493 0.66582394
-0.20651308 -0.43602124 0.3566477 0.48580366 -0.827676 -0.5858992 0.43013945 -0.18745573
0.71401983 0.053731237 -0.31924704 -0.09864961 0.3954744 -0.77724963 -0.37282407 -0.85614824
-0.25608364 0.09777977 -0.9352169 -0.028105991 -0.95806354 0.1626478 -0.42694876 0.20514439
-0.29589382 0.22367625 -0.12474003 0.6583506 0.21732388 -0.12759994 0.22870938 0.11043745
-0.6878919 -0.51237524 0.5873118 0.54319006 -0.7818264 -0.22440015 1.1528212 0.035397973
1.7621832 0.024963139 -0.081063956 0.9531306 0.7346537 -0.65495604 0.37148777 -0.36966065
-1.0885568 0.73536825 -1.392178 1.0621963 -0.2755131 0.27524745 -0.94827414 0.30076045
-0.1247688 -0.4057773 -0.8966929 0.4770789 0.18685824 -0.60935533 1.586613 -0.027180107
0.10613243 -0.43231857 -0.09194822 0.003495475 0.00041500074 -0.1338166 -0.10878989 -0.32737964
0.065863475 -0.22321728 -0.15935314 -0.2591829 0.059793912 -0.43218863 -0.27849308 -0.44409522
-0.36955968 -0.07107622 -0.91791296 -0.2646643 -0.1613717 -0.12922019 -0.47538936 -0.09304851
-0.13940783 -0.58355045 -0.14801675 -0.037701674 0.18130927 -0.09857152 -0.481856 -0.0897694
0.4029117 0.1586775 0.16537268 -0.6291398 -0.004398424 -0.3186154 0.54036856 0.1583261
-0.28283668 0.1847771 0.4229187 0.17349346 -0.19503911 0.05848816 -0.2956659 -0.39350763
-0.022457816 0.0047265464 0.022981105 0.1151662 -0.2566215 -0.08938468 -0.27859515 -0.56059426
-0.22327283 0.07946463 -0.37252098 -0.7348795 -0.35709262 0.01786048 0.040101826 -0.11435957
-1.1453558 0.10478074 2.1481407 -0.11229211 -2.1647346 -1.0801885 0.38459855 -1.6308495
0.6281689 -3.6211007 -0.88042235 -1.1515799 0.56775737 -2.752835 -0.3884426 2.3381217
-1.1614274 -0.67940575 0.8273755 -0.6172413 0.7443178 0.053325873 -1.282291 -2.686311
-1.4564515 0.3024402 2.0837388 -0.34409305 -2.0721316 1.0982668 0.3985149 1.96801
-0.35162005 0.10462983 1.1526577 0.03664324 -0.28560978 -0.55186194 0.0008994537 -0.21721359
-0.102698654 -0.6869022 -0.11866666 -0.17200226 -0.33217314 -0.41863602 0.44729978 0.4973657
-0.06275398 0.00087480387 0.38556504 -0.74999386 0.20387787 -0.44310632 -0.30504233 -0.9103908
-0.470471 0.49057165 0.43230242 0.40521827 -0.5502272 0.85489064 0.49919376 0.11296705
-0.5350081 -0.43089488 1.5883331 0.6980992 -1.111084 -0.5961275 0.30498755 0.1449981
1.2538211 -0.5655503 -0.46825412 0.0023055023 -0.010980536 -1.3077816 0.73996055 0.87585795
0.29899547 -0.63423896 -0.026686579 -0.07116277 -0.60812753 -0.13863152 0.33335194 -0.8157361
-0.38348904 0.66812676 1.387038 0.47656915 -1.7238541 -0.48002738 0.678328 -0.06970072

product_embedding.bias f4 [16]
00000000: 547e a33e 217f 823e 26c0 12be 1219 d2be
00000010: e559 31bf 2498 0bbf 3c55 cb3e 04c8 893e
00000020: 6227 1fbe dc67 e2bd 2471 16be b988 e1be
00000030: 1dc5 c53e 1101 a3bd 7569 27be 1849 293d
0.31932318 0.25487617 -0.14331111 -0.41034752 -0.69277793 -0.54529023 0.39713466 0.26910412
-0.15542367 -0.11054966 -0.14691597 -0.44049624 0.38626948 -0.07959188 -0.16348822 0.041329473
